model.tflite (tflite, 222120 bytes, 6 tensors)

arith.constant f4 [10, 64]
000000 0b bd d1 3d 58 eb ee 3d 12 1f 78 3d 25 dc 3b 3e
       0.10241135 0.11665982 0.060576506 0.18345697
000010 8a 01 42 be fa 7f 1d 3d 9e 26 8d 3c f0 6d aa be
       -0.189459 0.038452126 0.017230328 -0.33287
000020 ac 29 f6 bd b3 f6 ce be 25 c3 3e bd ea c2 d6 3d
       -0.12019667 -0.40422592 -0.046572823 0.10486396
000030 a9 ef 60 be 63 d0 88 3d ff ff 3a 3e 73 ae b1 be
       -0.21966423 0.066803716 0.18261717 -0.34703407
000040 5b fb 36 bd 53 6e a2 3e ad 87 b1 be f2 1a f0 3d
       -0.044673305 0.31724796 -0.34673825 0.117238894
000050 7f 8a 68 be 3a 9c 24 be 44 c9 1f 3b 89 93 41 be
       -0.22709082 -0.1607522 0.0024381438 -0.18903936
000060 f9 73 7d 3e 20 d6 01 3d 20 92 b9 bd 07 9f bf be
       0.24751271 0.031698346 -0.09061074 -0.37426016
000070 98 86 ba be 30 aa 65 3e 28 e6 18 3e 99 a3 9c 3d
       -0.36430812 0.22428203 0.14931548 0.07648391
000080 c8 5c 17 be 80 e0 dc 3c 67 22 6a 3d 56 67 d9 bd
       -0.14781487 0.026962519 0.057161715 -0.10615413
000090 07 a6 83 be cb d8 47 be 59 20 88 3e 1e 0e 08 3d
       -0.25712606 -0.19516294 0.2658718 0.03321659
0000a0 93 91 e1 bd ad e0 af be bf 06 3a 3e 6a 7c 9b be
       -0.11014094 -0.34351102 0.18166636 -0.30368358
0000b0 78 d3 14 3e eb 88 3d be ef 68 82 3e c0 cb aa 3e
       0.14533794 -0.18509261 0.25470683 0.33358574
0000c0 db c1 7f 3e 7a c6 de be 86 eb 0e be 09 13 93 be
       0.24976294 -0.435108 -0.13957033 -0.2872546
0000d0 19 1e fb be e6 93 7e 3d d8 2f 28 3e 19 3c ea 3c
       -0.490464 0.062152766 0.16424501 0.02859311
0000e0 69 ea 70 3e 82 0b 6d be df ea a2 3e 91 dc 07 bf
       0.2352692 -0.23148921 0.31819817 -0.5307093
0000f0 41 d6 89 3e bc ee 99 3d 45 1c 45 bd 47 88 93 be
       0.26921275 0.07516238 -0.048122663 -0.2881491
000100 59 79 11 bd 69 5a 17 3e b7 e5 bd 3e be 49 16 be
       -0.035516117 0.14780582 0.3708932 -0.14676568
000110 41 15 99 be 1e 98 2d 3e 2a 99 b5 be 3e 4a 89 3e
       -0.29899028 0.1695256 -0.35468417 0.26814455
000120 99 29 52 bd ac cb 45 3e 77 ee c6 3e 11 30 2b 3e
       -0.051309202 0.19315976 0.3885381 0.16717555
000130 6b 82 11 be 82 ee 8b bd 99 5a ad bc 7f 5a 38 3e
       -0.14209907 -0.06832601 -0.021161364 0.18003272
000140 de c4 dc bb 3f dc 4a be 96 36 19 bd 24 7b 58 be
       -0.0067373356 -0.1981058 -0.037405573 -0.21140724
000150 2a d5 b7 3e 4c 89 81 3e 7e be 97 bc d8 e7 8b be
       0.3590482 0.25300062 -0.018523451 -0.2732532
000160 82 06 93 be f9 84 59 be 21 7d fd 3d ca 15 d9 be
       -0.28715903 -0.21242131 0.12377382 -0.42399436
000170 6c 85 a8 be 3a c5 ce 3c 61 bb 4a bd a7 17 4d be
       -0.32914293 0.02524053 -0.049495105 -0.20028554
000180 c1 c6 fd be dd 16 b5 be ec f2 a5 bc 7a ed 3a 3d
       -0.495657 -0.35369006 -0.020257436 0.04563663
000190 9d e2 e6 3d 02 d5 8f 3e 8c 61 c9 be fb 12 a0 3e
       0.11273692 0.280922 -0.39332235 0.3126448
0001a0 75 bf ff be 01 ba e8 be 20 bf 25 3e 99 e9 0e be
       -0.49950758 -0.4545441 0.1618619 -0.13956298
0001b0 44 34 d0 3c ee 9a 96 3e ff 21 1b be c3 48 a6 3e
       0.025415547 0.29415077 -0.15149687 0.32477388
0001c0 6c 2b 24 3e d6 91 e4 bd bd e6 9c bc 66 41 e2 3d
       0.16032189 -0.111606285 -0.019152993 0.1104763
0001d0 b4 8b b8 be 1c 2b 8e be 67 c1 18 bc 67 47 73 3e
       -0.36044085 -0.27767265 -0.009323454 0.23757707
0001e0 37 cd c8 be e0 fa 35 3e 13 a2 52 bb 7c df 93 3e
       -0.39219067 0.17771482 -0.003214006 0.28881443
0001f0 28 8d 92 be 3d 3c 12 be a8 28 6e 3c 62 54 aa 3e
       -0.2862332 -0.14280792 0.01453606 0.33267504
000200 28 f3 88 bd 5f 1b b4 be 44 5a bc 3e e2 40 af be
       -0.066870034 -0.35177132 0.36787617 -0.3422919
000210 14 39 f1 be 8e d1 92 be e6 2d 0f 3d 7a 29 c7 be
       -0.4711386 -0.28675503 0.03495588 -0.38898832
000220 58 81 03 3e 83 0b 73 3d 89 8c 1f bf 8b 1a 3e 3c
       0.1284231 0.05933715 -0.62323815 0.011603008
000230 6e 91 29 bc 1a b4 37 be ba f6 44 3e da 21 4c be
       -0.010349615 -0.17939797 0.19234744 -0.19934788
000240 4f 8f 5b be 95 7d 04 be 85 20 5e 3e 64 a3 5b be
       -0.21441387 -0.1293853 0.21692093 -0.21449047
000250 0a db b8 be 23 9a 81 3e 13 67 10 3e 92 d8 93 3e
       -0.36104614 0.2531291 0.1410182 0.28876168
000260 e8 44 92 3e 9d a4 9f be f6 f4 8f 3d c3 b3 ed 3d
       0.28568196 -0.31180277 0.070291445 0.116065525
000270 58 c8 c3 3e cd 1a b2 3c 6a 9e 24 be 40 fc 0e be
       0.38238788 0.021741295 -0.16076055 -0.13963413
000280 3a ac e1 3d 80 9c 97 bd 71 d3 61 3e 3c 6d 36 3d
       0.11019178 -0.07402897 0.22053315 0.044537768
000290 08 8f 65 be f3 84 a5 3d e1 a5 0b 3d 5c 02 30 3e
       -0.22417843 0.08081999 0.03409374 0.171884
0002a0 44 64 2d 3e 59 26 a7 bd f9 cd 8f be 38 3e b3 3e
       0.1693278 -0.08161611 -0.28086832 0.35008407
0002b0 f1 d3 22 3e 30 f5 d0 3e 81 06 96 3e 28 94 6f be
       0.15901162 0.40812063 0.29301837 -0.23396361
0002c0 9c 23 19 be 61 52 e0 3d a2 e7 1c be ed 3e b9 3b
       -0.1495499 0.109532125 -0.15322736 0.0056532533
0002d0 3b ea 59 3c 65 f3 8b 3e b1 e2 cd be 66 b6 92 bd
       0.013300474 0.27334133 -0.40212014 -0.07163696
0002e0 c9 65 42 3e 66 52 a0 be b1 c0 3d 3e ba f9 af 3e
       0.1898414 -0.31312865 0.18530537 0.34370214
0002f0 a8 88 38 be 17 f4 8f be 3d c3 e8 bd 34 19 67 3e
       -0.1802088 -0.28115913 -0.11365364 0.22568208
000300 ee 27 95 3e 12 5b c9 be 93 59 de be de 26 20 3a
       0.29132026 -0.39327294 -0.43427715 0.0006109307
000310 49 a6 35 be 0e 98 a5 bc 37 71 01 3e 16 24 19 3e
       -0.17739214 -0.020214107 0.12640844 0.14955172
000320 a9 8e c6 be 33 cf a0 bd 65 98 89 be d2 8b c6 be
       -0.38780716 -0.0785202 -0.2687408 -0.3877855
000330 c9 1d a5 3e c5 b9 50 be 1e a1 87 3d 67 29 90 3d
       0.32249287 -0.20383365 0.066225275 0.07039147
000340 94 08 bc be 71 ca 91 be 8f 9b 5a 3e a1 ee 6a be
       -0.36725295 -0.28474763 0.21348403 -0.22942592
000350 36 1a 3b 3e 19 64 2a 3e 9a 5f 91 3b 40 5e 32 3e
       0.18271717 0.16639747 0.0044364454 0.17418766
000360 df 89 25 3e 2b 67 5e be d3 1a d5 be 3a e5 62 3e
       0.16165875 -0.21719043 -0.41622028 0.22157755
000370 d8 45 de bd d9 21 a1 3d 56 c7 97 bd a1 76 11 be
       -0.108531654 0.07867784 -0.07411067 -0.1420541
000380 ca f7 94 be b4 06 e9 bd 28 aa 0a 3e 0a 76 32 3e
       -0.29095298 -0.11378232 0.13541472 0.17427841
000390 63 3e de 3d c8 50 bc 3e de 60 b1 be 5c fa 00 3e
       0.10851743 0.3678038 -0.34644216 0.12595505
0003a0 59 46 87 be 8a ae 3a 3e 00 fc 01 3e d4 16 35 3e
       -0.26420859 0.18230644 0.12693787 0.1768449
0003b0 82 f3 db bd 45 8b 07 be 76 87 93 be 0a d0 a4 bd
       -0.10739805 -0.13236721 -0.28814286 -0.08047493
0003c0 36 ea c9 3d e2 f8 fd bc d1 9a af bd b8 98 36 bd
       0.09859125 -0.031002466 -0.08574451 -0.044579238
0003d0 45 c1 1d 3e eb b2 fd 3d a0 b3 89 3e 1e 11 95 3c
       0.15405758 0.123876415 0.26894855 0.018196639
0003e0 3b 40 1b be 9d ae 9e 3e e0 49 1c bd f2 e2 8a bc
       -0.1516122 0.30992594 -0.03815639 -0.01695392
0003f0 a5 c6 84 3e a5 0c 12 3e 36 2d 32 bd 68 18 2f be
       0.25932804 0.14262636 -0.043500148 -0.17099154

arith.constant1 f4 [64, 64]
000000 be d9 c0 3d 30 fc 25 be 18 b5 50 3d 6a 87 12 3e
       0.09416531 -0.16209483 0.050953954 0.14309469
000010 ba 9e 1d 3e d6 66 0a 3d ab c7 d3 3d 54 ee 27 39
       0.1539258 0.03378948 0.10340818 0.00016015145
000020 25 88 b3 3b 5d 8c b4 3d 86 51 61 be 06 6a 79 3e
       0.005478876 0.08815835 -0.22003755 0.24356851
000030 eb 24 e8 bd 5b 25 da 3d 29 4e 97 be b7 7b 89 bd
       -0.113351665 0.10651656 -0.2955182 -0.0671305
000040 b6 96 ab 3e 28 88 10 be 7e 6d ed 3c 3d b9 20 be
       0.3351342 -0.1411444 0.028982874 -0.15695663
000050 df 78 1b be fc ce 1e be 7f b0 50 3c cd 6a cb bd
       -0.15182827 -0.15508646 0.012737392 -0.0993248
000060 10 e4 27 3e 94 04 5b 3d af e6 0e 3e 47 25 81 3e
       0.16395593 0.053471163 0.13955186 0.25223753
000070 01 18 93 3d 54 3c 76 bb 38 6d 96 3e ef 06 08 be
       0.07182313 -0.003757258 0.29380202 -0.13283895
000080 ed 25 27 be f2 d5 d0 bd 9c e8 54 3d 94 31 18 3d
       -0.16323061 -0.10197057 0.051979646 0.037156656
000090 c2 16 6e be 90 ee 62 be 79 f4 6d be d3 65 34 bd
       -0.23250869 -0.22161317 -0.2323779 -0.04404242
0000a0 ec bb 2b 3e 18 61 79 be 71 54 82 bd e7 55 b1 3c
       0.16770905 -0.24353445 -0.06363762 0.021647407
0000b0 55 67 4b 3e fa af b9 bd dd 64 72 3d d3 28 46 3e
       0.19863637 -0.09066768 0.059178222 0.1935151
0000c0 1a a6 19 3d 1a e5 61 3c 0b 86 27 3e 02 6d 2d 3e
       0.037511922 0.013787532 0.16359727 0.16936114
0000d0 b8 32 05 3e 14 fa b5 3d 7d 06 3c be a7 b9 3e 3e
       0.13007629 0.08885589 -0.1836185 0.18625508
0000e0 0b 15 aa 3d 6f 43 8d bc 07 a0 62 3e f1 64 35 be
       0.08304795 -0.017244069 0.22131358 -0.17714287
0000f0 24 7e d3 3c 59 c0 d1 3d b6 96 bf 3e 52 61 88 be
       0.025816984 0.102417655 0.3741967 -0.2663675
000100 09 a2 9d 3d 9c 79 2b 3e de 25 3b bc 35 c5 4a 3e
       0.076969214 0.16745609 -0.011422602 0.19801791
000110 3c 6e 76 bd aa ba 78 be e8 92 f8 3d 3a 53 2c 3e
       -0.06016372 -0.24289957 0.12137395 0.16828623
000120 90 74 40 3e a5 34 d6 3d ad 27 60 3e 68 be 03 3d
       0.18794465 0.1045926 0.21890135 0.032164007
000130 7c bc 8f be 20 de ba bd 17 e3 9b be e8 36 10 3c
       -0.2807349 -0.09124398 -0.30446693 0.008802153
000140 92 fe 3f 3e a6 00 14 3e 0a 29 e5 bb 4a ad e3 bd
       0.18749455 0.14453372 -0.0069934176 -0.11117037
000150 74 84 90 be f6 8c bf 3c 97 3d a6 3d 6b fb a5 3e
       -0.28226054 0.023382645 0.08117216 0.3241838
000160 70 95 cb bd c8 05 6f 3d 5a 41 f0 3d ea bc 2d be
       -0.09940612 0.058355123 0.11731215 -0.16966596
000170 ad e5 b2 3d 36 65 77 bd 87 73 cf bd 34 92 0e 3e
       0.087352134 -0.060399257 -0.10129457 0.1392296
000180 4a 8c 25 3d 80 b0 aa 3e 5e a8 dd 3d 39 86 07 3d
       0.040416993 0.33337784 0.10823129 0.03308699
000190 31 4f 2f bc 4c a5 49 bd f8 47 bb bd dc 14 a8 be
       -0.010700033 -0.049229905 -0.09144586 -0.32828414
0001a0 7c 8a 32 3d db 40 c7 3d 73 9b 51 3d 92 28 25 3e
       0.0435891 0.09729167 0.05117364 0.16128758
0001b0 bd ee 6c 3e 80 b4 ef 3d 1f 44 98 be b5 9e a5 3d
       0.23137946 0.117043495 -0.29739472 0.080869116
0001c0 c5 7d af 3d 36 91 57 3e 48 88 30 3e c5 3b ed 3d
       0.085689105 0.21051487 0.17239487 0.11583666
0001d0 e5 52 31 be 7a 70 03 be b4 69 39 3d 42 7e 78 bd
       -0.17316778 -0.12835875 0.045266822 -0.060667284
0001e0 cf 00 66 bd 34 e5 d0 3d 66 ff 06 bd c3 29 00 3e
       -0.056153115 0.10199967 -0.03295841 0.12515931
0001f0 3f cc a7 be 03 5a 53 3c 25 7e 05 3e 8b 98 8c be
       -0.32773015 0.012899878 0.13036402 -0.2746013
000200 16 48 1f 3d 2e d2 b4 3c d6 be ed 3d 7e 7d 63 be
       0.038887106 0.022072878 0.11608665 -0.2221584
000210 6b 67 2d bd f8 e5 53 3d 63 2d f5 3d 91 b6 08 be
       -0.042334955 0.051732987 0.119715475 -0.13350894
000220 07 fe 9c 3e d5 ea 08 bd 3d c6 a8 3d fe db f2 3d
       0.30662557 -0.03342708 0.08240936 0.118583664
000230 f6 1d 69 bd 38 f7 46 be 59 ab a4 be b3 4c 00 be
       -0.05691334 -0.19430244 -0.32161978 -0.12529258
000240 f5 0e 0f 3e 3c 72 df bd 32 50 a7 be 8d 05 6b 3e
       0.1397055 -0.1091046 -0.32678372 0.22951336
000250 12 c9 61 3e 42 bd f3 bd c5 71 9f 3d 8a 5a 35 3d
       0.22049358 -0.119013324 0.07785372 0.044275798
000260 8f c2 b6 bd 98 6d e2 3c 28 aa 9b 3e 55 f0 b0 bc
       -0.08923828 0.027640149 0.30403256 -0.021598974
000270 63 39 69 3d 47 7e 6e be de 31 e9 3d 5b b5 c3 3d
       0.056939494 -0.23290358 0.113864645 0.09556075
000280 bd 2c 55 3c 69 a8 8c bd cb 5b 2a be ab e4 99 3d
       0.013011155 -0.06868059 -0.16636579 0.07514318
000290 d8 24 36 3e e8 17 b3 bd b8 73 61 3e 1c 75 57 be
       0.17787492 -0.08744794 0.220168 -0.21040767
0002a0 20 04 22 be 0d 64 41 3e 5d 88 71 3d 3b d9 2c 3e
       -0.15821886 0.18885823 0.058967937 0.16879742
0002b0 aa a3 27 3e fc 6f 16 be 8c e1 cd bd 70 2f 3e be
       0.16371027 -0.14691156 -0.10052785 -0.18572783
0002c0 3b 04 83 be 3b f4 cf 3d fd 9e 55 be a0 a6 a9 bd
       -0.25589165 0.10154005 -0.2086143 -0.08283734
0002d0 49 02 d9 bd 53 c4 79 bd 5c aa 75 3e b9 8e 75 be
       -0.10596139 -0.060978245 0.23990768 -0.23980226
0002e0 c1 92 13 3e 00 4b 39 be d1 52 3b 3e c8 c1 9b 3d
       0.14411451 -0.18095016 0.1829331 0.0760532
0002f0 b3 3e 47 3e a1 3b 89 3e 28 db 18 be 4c 21 38 3e
       0.19457512 0.26803306 -0.14927351 0.17981452
000300 c3 f9 a1 bc 04 7c 55 be a6 30 42 3e 6b 34 4f be
       -0.019772416 -0.2084809 0.1896387 -0.2023484
000310 0e 14 f8 3d a1 84 57 3e 53 52 49 be fb 09 3d 3e
       0.121132 0.21046688 -0.1966031 0.18460838
000320 40 db 39 3d cc d4 87 be ea 73 fb 3d 2b de 49 be
       0.04537511 -0.2652954 0.12277968 -0.19713657
000330 d3 0c c4 3b 14 5c 2e be 29 27 2b bc 23 41 c2 bd
       0.005982974 -0.17027313 -0.010446348 -0.0948508
000340 5e 1b 5b 3e 8b 75 f3 3d a2 db 79 3e e3 0d cf bd
       0.21397159 0.11887654 0.2440019 -0.101100706
000350 02 a5 5f 3e 1b 90 db ba 2d ae f4 bc 3b 54 67 be
       0.21840289 -0.0016751321 -0.02986821 -0.22590725
000360 eb 39 40 bd ae 95 38 be 48 71 26 3e 9e c1 55 3c
       -0.046930235 -0.18025848 0.16254151 0.01304665
000370 3e 49 5e 3d ff eb 2e 3e 92 44 2f 3e 3c 7e 27 be
       0.054269068 0.17082213 0.17116001 -0.16356748
000380 9f bc a6 bc 84 a9 63 bc 03 cc c2 bd c2 f4 54 bd
       -0.020353613 -0.013895396 -0.095115684 -0.05199123
000390 99 07 c1 3d 09 42 68 3d 7d 3b b9 bd 95 1b 8b bd
       0.09425277 0.0567036 -0.090445496 -0.0679237
0003a0 ed ca c7 bc 58 54 c7 bd 4d 83 62 be 01 b3 46 3e
       -0.024388755 -0.09732884 -0.221204 0.19404222
0003b0 f6 c8 55 3e 6d a9 28 3d 73 13 2a be ea 64 29 be
       0.20877442 0.041177202 -0.16608982 -0.16542402
0003c0 66 c0 59 be 26 7e f2 bc 1f 08 2a be 9e 31 7e bd
       -0.212648 -0.029601168 -0.1660466 -0.062059037
0003d0 00 bb 2e 3c 6c 7c c7 3d a4 d9 4e be 84 7e 1b be
       0.010664701 0.097405285 -0.20200211 -0.1518498
0003e0 3f a2 a7 bd e5 b4 45 bd 01 24 03 be a8 d5 d2 ba
       -0.08185243 -0.048268218 -0.12806703 -0.0016085403
0003f0 d7 5a e0 3d 76 8d f7 bd 41 bd b5 bd 1e 14 0a 3e
       0.10954826 -0.120875284 -0.08873988 0.13484237

mnist_model_1/dense_10_1/Add/ReadVariableOp f4 [64]
000000 b4 86 b4 3c 69 f3 17 bd 9a 98 8a 3d 46 26 89 bb
       0.022036888 -0.03709737 0.06767388 -0.0041854708
000010 9f fa 03 3d be cf 7f 3c 0a 0c b6 3c 3c bf de b9
       0.032221433 0.015613494 0.022222538 -0.0004248562
000020 60 93 d3 3c f7 20 f4 3c fe d9 76 3c 4f cc f4 3a
       0.02582711 0.029800875 0.015066622 0.0018676611
000030 3e be b5 bc 27 51 c0 bc 37 dc cd bc 04 fd 5e 3b
       -0.022185441 -0.023476196 -0.02512942 0.003402532
000040 0a 8d 04 3d 2c 53 87 3c 69 84 84 3d 9f 9f 75 3d
       0.032361068 0.016519152 0.06470568 0.05996668
000050 51 89 6e 3d b9 ca cb 3b 4b 56 be bc ec c6 96 3c
       0.058236424 0.006219235 -0.023234507 0.0184054
000060 e8 fb 42 bc f5 3e 93 bc 11 3f 40 3d 11 bf 95 3c
       -0.011900879 -0.017974356 0.046935145 0.018279584
000070 9e b5 72 3d f6 0d d5 bc 4f 77 b3 bc 9e 90 f8 3d
       0.059255235 -0.026007634 -0.021907477 0.121369585
000080 61 be 0f 3c cd 76 f0 3c 09 49 d3 3c 17 f3 85 3d
       0.008773417 0.029353524 0.025791662 0.06540506
000090 81 2b b8 3c 49 e3 03 3d d7 4a 17 3d ea 26 1c bb
       0.022481682 0.032199178 0.036936607 -0.0023826906
0000a0 9a bd bc 3d 5c 83 52 3d e8 db 6f 3d e8 ce e7 bb
       0.09215851 0.051394805 0.05855933 -0.0070742257
0000b0 9d 71 93 bd 69 36 7d 3d e4 f0 e9 3a bd 7f 9d bc
       -0.071994044 0.061819468 0.001784828 -0.01922595
0000c0 36 df 1e 3d 05 16 a3 3d d1 70 84 bb e9 9a 08 3d
       0.03878709 0.07963184 -0.004041769 0.03335086
0000d0 98 7f 1a bb 44 87 6a bb 4a 5e 4c 3c ce a2 1d bc
       -0.0023574587 -0.003578619 0.012473652 -0.009621335
0000e0 0f f9 a9 3d b0 a4 33 3d d4 52 ad 3c 37 5a 79 3d
       0.08299457 0.04385823 0.02115766 0.06087705
0000f0 24 0e e9 39 a6 15 43 3d 4b ee 10 3d 2d 53 d2 3d
       0.0004445176 0.047628067 0.035383504 0.10269771

mnist_model_1/dense_11_1/Add/ReadVariableOp f4 [10]
000000 94 40 8a bd dd d4 66 3d 02 f7 ce bc b0 47 2c bc
       -0.067505985 0.056355346 -0.025264267 -0.0105151385
000010 8b df b7 bb af d6 af 3d 06 b3 1c bd ab 7e 9b 3d
       -0.005611365 0.085858695 -0.038256668 0.075925194
000020 b2 a0 af bd f2 d2 7e bb
       -0.08575572 -0.0038883057

mnist_model_1/dense_9_1/Add/ReadVariableOp f4 [64]
000000 81 93 98 3c 80 a5 9d bc 13 d4 c9 3d 91 0d 12 3d
       0.018625023 -0.019243956 0.09854903 0.03565747
000010 61 3d b1 3c d5 4e 09 3d 54 9f c7 bc 13 47 a1 3d
       0.021635713 0.033522446 -0.024367966 0.078748845
000020 1e 1b b0 bc 06 cb 4f 3b 3e 9e 2f bc 98 d1 14 bd
       -0.021497305 0.0031706705 -0.01071888 -0.036332697
000030 dd c4 bb 3b 09 9d 8e 3b 8e 3b 42 3d 47 83 8a 3d
       0.005730255 0.004352216 0.047420077 0.067633204
000040 aa 15 ad bc 1f b6 e9 bc ca cf 32 3d 75 1b 34 bd
       -0.021128494 -0.028529225 0.043655194 -0.043971498
000050 40 83 d0 3d 17 d5 93 3d 3f 28 f1 bc dc 94 f4 3a
       0.10181284 0.07218378 -0.029438136 0.0018660086
000060 89 d1 89 bc 59 77 6c 3d f7 60 ad 3d ad 68 54 bd
       -0.016823547 0.057731006 0.0846576 -0.05185764
000070 b1 62 53 3d e7 00 7e 3d 42 e9 70 3d 33 6f c6 3d
       0.05160779 0.06201258 0.058816202 0.09689178
000080 65 37 a4 3c fe 5f 30 3d 40 da 96 3c 0b f3 12 3d
       0.020045945 0.043060295 0.018414617 0.035876315
000090 42 5d c5 3d 31 72 e3 3d 0b 58 ac bc 67 2a 37 bc
       0.09636928 0.11105765 -0.021038076 -0.011179543
0000a0 e8 c7 3e bd a9 7d 4b bd 3e 68 6d 3c 97 57 85 3d
       -0.046577364 -0.049680386 0.014490185 0.06510847
0000b0 93 ed 07 bd 14 45 a6 bd da 25 97 3d 07 06 b8 3b
       -0.033185553 -0.08118644 0.073802665 0.005615953
0000c0 11 3b 00 3d 6f 26 b5 3c 8c 74 14 3d 4b 36 67 bd
       0.03130633 0.022113053 0.03624396 -0.056448262
0000d0 d4 bf 0c 3c a1 4e 47 3d 85 c8 0b 3d ee 95 03 bd
       0.008590657 0.04865897 0.034126777 -0.032125406
0000e0 f6 1c c0 3c 9f a1 be bc 19 b9 c4 3c a6 f1 e7 3c
       0.02345131 -0.023270426 0.024014043 0.02831347
0000f0 56 47 82 3c 25 2d c0 3c db 02 1f 3d 0a 72 69 3d
       0.015903156 0.023459027 0.038821083 0.05699352

mnist_model_1/dense_9_1/MatMul f4 [64, 784]
000000 82 6e ec bc 80 9b 9c bc 68 02 69 bc 9a 38 83 bd
       -0.028861288 -0.019117117 -0.014221765 -0.0640728
000010 58 c0 9e bc c6 b0 a7 bd ec 1a ae bc 3a a4 3c 3d
       -0.019378826 -0.08188014 -0.021253072 0.046055056
000020 5c b6 e1 bc 68 02 7c 3c 6a 51 5a bd 58 a0 25 bc
       -0.027552776 0.015381433 -0.0533003 -0.01010903
000030 02 32 9b bd 6c 70 a4 bc d2 79 67 3b 39 63 89 bd
       -0.075778976 -0.020073138 0.0035320413 -0.06708378
000040 fa f1 6e bd 30 57 dc bc 40 b2 8a ba 00 a3 a4 bd
       -0.058336236 -0.026897043 -0.0010581687 -0.08038902
000050 ec c0 7c bd 76 65 2a 3d b6 f1 0b 3d b9 37 a7 bd
       -0.061707422 0.041600667 0.03416606 -0.08164925
000060 96 aa ce bc bd ec 95 3d 71 1b a6 3d c0 da 7e 3c
       -0.025227826 0.07320545 0.08110703 0.015555084
000070 98 eb 0e bc 52 c1 81 bd 43 c9 92 3d a1 24 85 3d
       -0.008723162 -0.06335701 0.07167294 0.06501127
000080 73 eb 10 3c f6 bd 13 3d 91 90 31 3d fe 48 95 3d
       0.008845198 0.036069833 0.04335076 0.07289313
000090 2d 9a 93 bd f9 82 99 3d 72 b1 41 bc 93 a6 5a bd
       -0.07207141 0.07495684 -0.011822091 -0.053381514
0000a0 6f 9b 9e 3d 10 f5 b2 3d 82 74 91 bd a9 03 63 bd
       0.0774449 0.08738148 -0.071023 -0.055423412
0000b0 60 c7 93 bc ec c3 7d bd 1e 3d 28 bd a0 b3 0d bd
       -0.018039405 -0.061954424 -0.04107391 -0.034595132
0000c0 4d 6a 0a bd 7e 67 a0 bd 60 bf 51 bd 33 2c 30 3d
       -0.033792783 -0.078322396 -0.0512079 0.0430109
0000d0 b0 a8 83 3b 62 4c 45 3d c8 7c ed 3c 58 14 ec 3c
       0.004017912 0.048168547 0.028990164 0.028818294
0000e0 0e 61 3f 3d 00 90 ed b7 97 60 6c bd 34 be a7 bd
       0.046723418 -2.8319657e-05 -0.057709303 -0.08190575
0000f0 cb 73 80 bd 04 f7 46 bd a9 75 fa bc 7a 0a 94 bc
       -0.06272086 -0.048575416 -0.030573683 -0.018071402
000100 8d a1 a5 bd 0c fa 30 3d ea ce 9c bc f5 05 a7 3d
       -0.08087454 0.043207213 -0.019141633 0.08155433
000110 d9 31 63 3d 07 e5 06 bd f4 de 07 bd 29 36 5d 3c
       0.05546746 -0.03293326 -0.03317161 0.013501682
000120 e1 20 0a bd d0 b3 4e bd cf 23 9e 3c e1 bb 53 3d
       -0.033722762 -0.05046445 0.019304184 0.051692847
000130 77 77 17 bb bb 95 6f bd 56 b8 01 bd f2 84 9d 3d
       -0.0023111978 -0.058492403 -0.031669937 0.07691373
000140 70 31 7a bd 89 3a 3b 3d ff eb 93 3d d8 9b be 3c
       -0.061082304 0.04571012 0.07222747 0.023267671
000150 40 06 79 bd 5b c6 23 bd 03 71 91 3d f4 0e 29 3c
       -0.060796976 -0.03998409 0.071016334 0.0103185065
000160 29 6a e0 3c d6 40 2e bd 4d 22 b4 3b 85 bb 98 bd
       0.027394371 -0.0425423 0.005497253 -0.074576415
000170 59 ed 5b 3d d8 70 6b 3d ba ec 83 3d 4a b4 83 3d
       0.05369315 0.057480663 0.064416364 0.06430872
000180 f9 fd 0d bd af 05 86 3c 92 9c 19 3d a2 1f 6f bc
       -0.034666035 0.016360132 0.037502833 -0.014594944
000190 92 ca 3d bd 58 21 19 bd b6 01 84 bd dc 8d ca bc
       -0.046335764 -0.037385315 -0.06445639 -0.024725847
0001a0 22 c2 5b 3c fb 69 90 bd b5 f7 d3 bd 1c 94 32 bd
       0.013412984 -0.07051464 -0.10349981 -0.04359828
0001b0 1b 1f 4c bc 81 19 12 3b 48 47 04 bc 0c 47 9e bd
       -0.012458588 0.0022293034 -0.008073635 -0.07728395
0001c0 cd a1 88 bd ea 1e 6c bd ea 49 71 bd a3 d7 08 3d
       -0.06671486 -0.05764667 -0.05890838 0.033408772
0001d0 bd d5 90 bd d7 92 24 ba 45 3a 63 3c 7e a9 57 bd
       -0.07072017 -0.00062779844 0.013868873 -0.052651875
0001e0 d3 a4 a7 bc 35 01 06 3d 0c 45 24 3d d0 d4 92 39
       -0.020464336 0.032715995 0.04010491 0.00028005848
0001f0 69 23 01 3e e2 85 27 3d 10 9b 3d 3d c5 ed e4 3c
       0.12611164 0.040899165 0.046290457 0.027945409
000200 8e 11 da 3d af 25 14 3d e2 e1 1c 3d 0a 5e e5 bc
       0.106478795 0.03616875 0.038301356 -0.027998943
000210 48 c7 a3 3d f0 38 d0 bc 8c eb fb 3c 55 8f 7a 3d
       0.07996994 -0.025417775 0.030751966 0.06117185
000220 72 06 e9 3d 3c c5 63 3d 2b ae 47 3d a1 47 f6 3c
       0.113781825 0.05560802 0.048750084 0.030063452
000230 24 4a 20 3d 24 f7 f7 bc ff d1 42 3c 86 64 bc 37
       0.039133206 -0.030269213 0.011890887 2.2458156e-05
000240 ba 43 6d bd 83 82 d6 bd a6 4a 12 be d8 55 20 be
       -0.057925917 -0.10474112 -0.14286289 -0.15657747
000250 03 68 da bd 37 7f 6b bd 3b 60 a4 3d 15 a2 b0 3d
       -0.1066437 -0.05749437 0.08026167 0.08624665
000260 11 01 a5 3d 89 42 ac 3d 73 60 d0 3d 8f c4 f1 3d
       0.08056844 0.08411128 0.10174646 0.11805069
000270 bd aa 06 3d e6 bb 94 3d 35 30 e7 bc 24 9e 56 3d
       0.032877672 0.07262401 -0.02822123 0.05239691
000280 5e 44 b9 3a e3 7a 27 bc 33 da 2b 3d 77 d2 72 bc
       0.0014134755 -0.01022217 0.041956138 -0.014820687
000290 d4 13 64 3c a4 d5 b8 3d 47 c3 60 bb 7c c0 73 bd
       0.013920743 0.09025124 -0.0034296082 -0.05950974
0002a0 02 05 b5 bc 62 89 f2 3c 02 95 8a 3d 59 3d e0 bd
       -0.022097114 0.029606525 0.06766702 -0.10949201
0002b0 8a 61 cc bd 20 40 62 bd 1a 77 94 bd 20 ec b9 bd
       -0.099795416 -0.055236936 -0.07249279 -0.090782404
0002c0 c6 1e 86 bc 4d 20 87 bd 33 d2 87 bd c0 77 b1 3d
       -0.016372096 -0.06597958 -0.06631889 0.086654186
0002d0 bc b7 4a 3c e8 8f 8e 3c ed 50 28 3d 31 94 15 bc
       0.012372907 0.017402604 0.0410928 -0.00912957
0002e0 a3 fa 85 3d 2b 86 d2 3d 96 a4 b7 3d ad 35 b2 bc
       0.06541946 0.10279497 0.08966939 -0.02175411
0002f0 e1 ac 41 bd 72 03 36 bc d8 13 af 3d 4e 78 7a 3d
       -0.04728401 -0.01110922 0.08548707 0.061149888
000300 6d 0e f8 3d 59 6d c0 3d d5 8c 3f 3d eb 28 8e bd
       0.121121265 0.093958564 0.046765167 -0.06941398
000310 39 61 26 3d 5e c2 23 3d 2a ba a2 3d 73 85 b2 bd
       0.040620063 0.039980285 0.07945664 -0.0871686
000320 52 54 e3 bd 23 bc bf bd ca ed 9b bc df a7 fb 3c
       -0.11100067 -0.09362056 -0.019034285 0.030719696
000330 4e 4d 72 bc 10 3b 4d 3c 8f e0 16 3d 2a 5c 39 3d
       -0.014788939 0.012526289 0.03683525 0.04525391
000340 06 65 09 3d db fb cc 3d ac d9 17 3c 7f 30 01 3e
       0.03354361 0.10008975 0.009268206 0.12616156
000350 c5 15 8b 3d 97 1e ed 3d af 22 ac bb d0 80 aa 3d
       0.067912616 0.115781 -0.005253158 0.0832535
000360 2a 5c 61 bc 4a ba 66 3c 0d da a9 bc 2b de 6f bc
       -0.013754884 0.014082501 -0.020733858 -0.014640371
000370 63 83 b3 3d 46 19 0f 3e 99 d8 24 bd 18 63 5a bc
       0.087652944 0.13974485 -0.040245626 -0.01332929
000380 ea c9 9d bc 0a 4e 23 3d ee 3c a2 bd 7b 60 68 bc
       -0.01926132 0.039869346 -0.07921778 -0.014183159
000390 3b 44 0e be af c9 96 bb 1c cd 97 3d a0 3c 96 bd
       -0.13893215 -0.0046016793 0.074121684 -0.07335782
0003a0 aa 42 db 3d d1 e0 be 3d 9e 05 74 3c 62 52 a8 3d
       0.107060745 0.09320224 0.014893917 0.08218838
0003b0 7e 62 79 3a 0e ff de 3d 0d 91 a9 3d 56 94 25 bc
       0.00095132727 0.108884916 0.08279619 -0.010106167
0003c0 b4 6f b5 3d ba d1 5e 3b c1 89 21 3d 11 1e 2c 3d
       0.08859196 0.0033999518 0.039438013 0.04202086
0003d0 a7 f3 9d bc 62 85 90 3c 7f 6d 9b 3c c5 5c 0a 3d
       -0.019281222 0.017641727 0.01897311 0.03377988
0003e0 9b 97 07 3e b3 bd 8d 3d 98 6d 45 3d eb 07 cd bc
       0.13241427 0.06920948 0.04820022 -0.02502819
0003f0 f4 a3 75 3d 60 eb 95 3d ff 23 6a 3d dc cf 66 bc
       0.05997081 0.07320285 0.057163235 -0.0140876435
